models/less_dataAug_130epochs.pth (torch_old, 381470 bytes, 61 tensors)

conv1.0.weight f4 [8, 3, 5, 5]
00000000: 0d7c e9bc 15c6 d53d 6076 0e3e 9160 9e3d
00000010: 5c9a d43d 957c 77bc 2a05 733b 0319 c33a
00000020: 5d83 133e e321 f63d d43c c93d f86a a63d
00000030: 52c7 283d 83fd d33d 0418 e6bb e7c0 2b3d
00000040: 9931 9f3d 9449 a13c b202 ae3d 88e7 27bd
00000050: 8767 973b fe81 113b fd50 45bc fe6b a63d
00000060: 6b1d f33d 9502 ddbd 39ba 2e3d 8c1c f4bd
00000070: 844e febd 1a3b 30be 5033 0ebd 6650 393d
00000080: bfae 23bc 6b8e afbd 2d21 26be 4fa8 bcbb
00000090: 6263 d1bb 8a37 acbd f95c 20be 0a7d a83c
000000a0: ea20 f9ba 0593 54bd 8026 23bd 18f2 083a
000000b0: d6e7 afbd 3168 a13c 5967 f6bb e2dd 4fbd
000000c0: d192 e9bc 32cf e5bd afb9 ed3d cabb abbd
000000d0: f5a3 9fbd 07e1 933d 63df d63c 0eff e63c
000000e0: 63e8 bcbd 75fc 353d 3126 debd f34e 283d
000000f0: f649 44bd 47b9 c1bd d3c1 643d 3387 773c
00000100: fd66 ac3c 995a c9bc 0c85 493d f3f1 b5bd
00000110: 6e91 cdbc 89f5 c63c 19d8 fd39 5fa9 c6bc
00000120: e9e9 abbb 18b8 b9bc 2038 58bc c947 93bd
00000130: 9d6d a5bd a96c 163e a221 083e f792 93bd
00000140: 9878 22bd 0a44 c13d 794d 233e 0dd7 353d
00000150: 0e7c f33c 3933 a53d 8d67 70bd d28d 943d
00000160: a887 8a3c 2755 873d fe51 97bc 1fe6 96ba
00000170: 1a02 063e 7f3e b63d b5e2 bf3d 1916 60bc
00000180: fcc1 c3bd 7465 38bd 7fec 6bbd 7278 783a
00000190: d0cf bdbd 3501 d83b 09a7 cabd 3f51 99bd
000001a0: cbcc a6bc e259 a4bd cf73 b5bd c974 97bd
000001b0: 015e dc3c f1fc 0fbd 588a b2bd c576 94bd
000001c0: 0bfa 783c d0b7 5b3d c7e7 ecbc 9d04 d2bd
000001d0: dc63 f13c 40a9 05be 2ba2 cebd e947 ccbd
000001e0: d68b dbbc 992c 35bc f3eb f8bc 12a1 593d
000001f0: 585b cb3c fb48 d53d b085 df3c f64d b63b
00000200: b319 41bc 844a 8a3d 7964 f13d b896 e73d
00000210: 2921 bbbd 2215 dcbd a79f d1bd 4dc9 f53a
00000220: 635c 9a3d 12f9 afbd 310b 27b9 21b5 0bbe
00000230: 5f9a 033e 6ca3 d83d bed1 85bc e01a 1f3d
00000240: a27c ae3c 8a0a e63d ee37 853c 6b15 433d
00000250: 05a6 16bd 8d09 2dbc ee85 1dbe 445e 0e3c
00000260: c7c8 353d b2b5 273d 2c85 bc3b b904 7fbd
00000270: 3733 38bd 7e68 f03d 41b6 2cbd a598 6cbd
00000280: 234a 1bbd 92bd a43d 2989 bb3d 32d6 bf3b
00000290: 3f8e be3d ca75 8cbc 6398 9fbb df5d 163d
000002a0: b843 c43d e61f 0a3e 9f51 00be e3ab 1fbe
000002b0: 1262 c03d 0dea 9dbd 5627 80bd c574 38bd
000002c0: 030b 0fbd 64e0 e0bc 1bbe ebbc b9b0 c0bd
000002d0: 3e3f d8bd 134a bcbd fb52 793c 4fce bdbd
000002e0: f3df d4bd 0e79 943d 8f00 353d 6302 033e
000002f0: 850f 193d f6e5 ea3d 94e9 55bd 6261 dc3c
00000300: 991a 0cbd 7463 b8bc 4269 b53d 702c 98bd
00000310: f3d9 d8bd cc71 27bd a1a4 193e a165 343e
00000320: 1f6f b33a c046 7e3c ed2a 1c3c e757 863d
00000330: f36d 24be a437 663d ebfa 03bd 6dbf b3bd
00000340: 592b 093d 0db4 81bd 3b4b 723d f634 303d
00000350: cd18 ddbc c2df 6d3d 19d6 cbbd be82 55bb
00000360: 1486 8f3b 6e8e c93d b767 c83d ca15 e3bc
00000370: 3f27 ad3c d075 8a3d 78f2 f93d 70ab 2f3c
00000380: 34ac 803c 16db 573d 1299 c93d 1d70 0a3e
00000390: e3be e03d 3136 3ebd f4b3 d73d c7de a43d
000003a0: 60ac 003d 3e2b 9f3d d505 523b 358c 23bc
000003b0: 3125 0ebd 26d7 95b9 4a42 e13d 0a8a 6f3d
000003c0: 7ed2 e4bc 73d9 723d 14c4 ec3a dc28 e3bb
000003d0: 483f 903c 7c30 a33d 61ab 0e3e 191a 193e
000003e0: 5454 8f3c 1c55 a83c a8e4 a83c c398 38bd
000003f0: deea d03c fb4e cdbd 750a 30bc d8f5 abbd
-0.028501535 0.10438172 0.13912344 0.07733262 0.10381004 -0.015105386 0.0037081935 0.0014884773
0.1440558 0.12018182 0.09826055 0.081258714 0.04120571 0.10351088 -0.007021906 0.041932013
0.07773132 0.019688405 0.08496608 -0.04099229 0.0046204957 0.0022202726 -0.012043235 0.081260666
0.118708454 -0.10791508 0.042658065 -0.119195074 -0.124173194 -0.17210045 -0.034716904 0.04524269
-0.009990393 -0.08572086 -0.16223593 -0.0057573686 -0.006390021 -0.08409031 -0.15660466 0.020567436
-0.0019007002 -0.05189802 -0.03983164 0.0005224063 -0.08589141 0.019703003 -0.007519644 -0.050748713
-0.02851239 -0.1122116 0.11607682 -0.08385427 -0.07794944 0.07220655 0.026229566 0.028197791
-0.09224012 0.044430215 -0.10847128 0.041090917 -0.047922097 -0.09459167 0.055848908 0.015107918
0.021045202 -0.024579333 0.04919915 -0.08884039 -0.02509376 0.024287002 0.00048416926 -0.024250684
-0.00524639 -0.02267079 -0.013196975 -0.07191426 -0.08077548 0.14689888 0.1329408 -0.07205766
-0.03966579 0.094368055 0.15947522 0.04439454 0.02972224 0.080664106 -0.058692504 0.072536126
0.016910389 0.066080384 -0.018471714 -0.0011512673 0.13086739 0.08898639 0.09369413 -0.0136771435
-0.09558484 -0.04501863 -0.057598587 0.0009478397 -0.09268153 0.0065919408 -0.09895141 -0.074861996
-0.020361325 -0.08024956 -0.08859979 -0.07395322 0.026900293 -0.035153333 -0.08717793 -0.07249216
0.015196334 0.053642094 -0.028919114 -0.10254786 0.029466562 -0.13052845 -0.10089525 -0.09974653
-0.026800077 -0.011057996 -0.030385947 0.053132124 0.02482383 0.104143105 0.027285427 0.005563493
-0.011785912 0.06752494 0.11786742 0.11308044 -0.09137184 -0.10746218 -0.102355294 0.0018752009
0.075371526 -0.08592428 -0.0001593053 -0.13643314 0.12851857 0.10578045 -0.016335364 0.03884399
0.021299664 0.11232479 0.01626202 0.047627848 -0.036779422 -0.010561359 -0.15383121 0.008689467
0.04438093 0.040944763 0.00575318 -0.062260363 -0.044970717 0.1173868 -0.042166 -0.05776276
-0.0379125 0.0804397 0.091570206 0.0058543915 0.09304475 -0.01714601 -0.004870461 0.036710616
0.09583229 0.13488731 -0.12531136 -0.15592913 0.093937054 -0.07710657 -0.06257503 -0.045033235
-0.03492261 -0.027450748 -0.028777173 -0.09408707 -0.105589375 -0.09193816 0.015217538 -0.09267866
-0.103942774 0.07249652 0.044189986 0.12793879 0.037368316 0.11469643 -0.05222471 0.026901904
-0.034205053 -0.02250836 0.08857967 -0.07430351 -0.105884455 -0.04088001 0.15004207 0.17616893
0.0013689733 0.015519798 0.009531719 0.06559735 -0.16057567 0.056205407 -0.032221716 -0.08776746
0.033488605 -0.0633317 0.059153777 0.043019257 -0.026989365 0.05807472 -0.09952945 -0.003257915
0.004379997 0.098416194 0.09785407 -0.02772035 0.021136878 0.06760752 0.1220445 0.010722026
0.015707113 0.05269917 0.09843649 0.1351933 0.10973909 -0.0464384 0.1053237 0.08050304
0.03141439 0.0777192 0.0032046933 -0.009982158 -0.034703437 -0.00028579793 0.10998972 0.058481254
-0.027932402 0.059289407 0.0018063807 -0.006932361 0.0176083 0.07968232 0.13932563 0.14951362
0.017496265 0.020548396 0.020616844 -0.04506756 0.025502618 -0.1002483 -0.010744681 -0.083965

conv1.0.bias f4 [8]
00000000: 3704 05be bc98 313e f951 473e 2553 923d
00000010: 18ff b93d 4e9e 3cbc e94f d63d 9467 17bd
-0.12989889 0.1734342 0.19464864 0.07144765 0.090818584 -0.011512352 0.104644604 -0.036964014

conv1.3.weight f4 [8]
00000000: 297e 753f 9703 733f d153 6c3f 76ea 583f
00000010: 014d 673f f3ac 623f 363b 7c3f 70b5 853f
0.9589563 0.9492735 0.92315394 0.8473276 0.90351874 0.8854515 0.9852785 1.0445995

conv1.3.bias f4 [8]
00000000: 84d8 1ebd b4e0 d4bd 728d f2bc fc47 13be
00000010: d348 013e f4ca 1b3e 9cf2 3bbd c1b7 053e
-0.038780704 -0.10394421 -0.029608462 -0.14382929 0.12625436 0.15214139 -0.045885667 0.13058378

conv1.3.running_mean f4 [8]
00000000: 0478 a73d c1c7 2d3e 0237 bd3e 4b39 363e
00000010: 5e66 cc3e 2f3c 083e fd9d ec3d 940d 913f
0.08177188 0.16970731 0.3695603 0.17795293 0.3992185 0.13304208 0.115535714 1.1332269

conv1.3.running_var f4 [8]
00000000: ceff 0d3e 707a b63d 7eea cc3d 29e3 533e
00000010: e01e 6a3e db16 293e 58bf 7d3d 1e21 8c3f
0.13867113 0.08910072 0.10005663 0.20692123 0.2286334 0.16512625 0.061950058 1.0947607

conv2.0.weight f4 [16, 8, 3, 3]
00000000: b815 f23c 7bc7 283d 4e3e 003d 3765 653d
00000010: a291 383d c002 643d 9a68 033d 1190 a03d
00000020: 53f9 99bc 6c43 cf3d c94b 443e 2359 a13d
00000030: 2e82 183d 0c79 493e cd9c e53c c157 92bd
00000040: 67ad 33bd 02af 1ebe 111c 85bd c6c5 953b
00000050: e5ee 8ebb 11b8 8d3d 6f65 623d 21e2 dabd
00000060: 5897 7cbd c8b3 c2bd e2f6 9bbd 7700 a8bd
00000070: c5dc 993d 93bb 843d a725 d0bd 9c20 a4bd
00000080: cdfd 27bd 99d0 66bd c8f1 b4bd 35b9 823d
00000090: 8062 d53d c393 023e 8a02 493c 24f2 c2bd
000000a0: 574a 0e3e fcaa 81bd 13ae f7bd c599 783c
000000b0: 96be c23c 2c70 8a3c de68 37bd b65a 8c3d
000000c0: 2554 d5bd 03fa b1bd 5bea c43d d50d 3fbe
000000d0: 3833 103d f516 883d 3912 2b3c 6913 c7bd
000000e0: 0716 fb3c 2034 0cbe 4aa8 793d f7b8 c83d
000000f0: 4e38 bcbd c4e4 94bd 18e2 0b3e ea53 d4bc
00000100: dc78 bd3d 56cd 253d c82e d23d e68a d1bb
00000110: 76af dabc 1792 8c3d f8e2 d83d 864c e13d
00000120: 25dd 8cbd 1270 f73d ae3f e23c e62c 41b9
00000130: 2056 14bc 7181 773d 2c40 fb3c 4648 dabc
00000140: 0d40 163e 8051 27bd 5406 b8b9 46e9 ba3c
00000150: 6817 a5bd c644 26be ce82 b33c 3b60 8cbd
00000160: 9cf2 f5bd 7486 013d 9b1e 08be 5ea8 823d
00000170: 4db5 4dbd cba9 efbd 0de0 debc 116a 543d
00000180: f221 21bc aa03 e5bd 3b63 2c3c 4d56 3439
00000190: 8d40 bb3d fa86 423d a92b d0bd 7452 c8bd
000001a0: 3db7 f93d 6f31 5dbd a93e b7bd bcf5 92bd
000001b0: 93b8 d8bd b6f2 95bd 5873 123e 4173 fcbd
000001c0: 0120 cdbd c946 d33d 2cfb 33be 2cbb 4c3d
000001d0: c27f 883d 1a3e 71bd 3e93 453d 4da0 9bbd
000001e0: 6e4f ca3c 6e71 a9bc 9722 d5bc db14 613d
000001f0: 06e2 a23c bef5 4cbd 07a9 67bd aa86 b4bd
00000200: 83f0 39be 891e c33d f212 683c 7a92 83bd
00000210: 23dd 913c 188c 4ebd ad52 6dbd 6dbe dc3c
00000220: 4330 dd3c f3fe 33bd 0a64 0cbd 910d 123e
00000230: 1370 653d 9b25 f53c 683e 773d 3d3a fe3d
00000240: 50bb 78bd b01c 2fbd 8c71 a93d e680 933d
00000250: 2023 e73d 9c73 f33d 217e 083d 44aa b63d
00000260: a398 d7bc 5445 573d bd5a 093e 745e 2ebd
00000270: 3d85 4b3d bae3 203e 9a79 883d 9cab 4cbd
00000280: ffd6 7abd 717a 1a3d 40f6 a53d 6867 873d
00000290: 359f 913b ee6b 393d f75d 2d3d 25ee 553d
000002a0: 3f16 d63b 6d54 5ebc d25e 423d 655f 37be
000002b0: 1d17 fbbb 6f33 fe3c 006d 27be c1bc 403c
000002c0: 71c2 dabd 875b dabc ae89 d2bd 7c67 b8bc
000002d0: 2c32 573d 2a50 41bc 2602 243d aea4 853d
000002e0: 571b 7cbd bd74 5ebd 3341 163d cbd7 183a
000002f0: 72fa a3bd ffd8 13be 4d0b 13be cab1 89bd
00000300: 55a7 99bd 6361 d5bd ef9b 6a3d 975d 93bc
00000310: 3db8 c5bd 876e 86bd 3fa9 c4bd f212 0d3e
00000320: 9a13 003e 91bd 37bd 23d5 1a3e 0600 ad3d
00000330: a753 9abd c6a9 d83c 08bd 993d 0279 4e3d
00000340: 999f a8bd c4cb 553b 9e9d e2bb daaf e93c
00000350: 1712 81bd 06d1 2cbd f2c7 80bd a836 4abd
00000360: 618d ba3c 30d3 203d c89d 17bd ad81 423b
00000370: c7f5 b33c ca43 e6bb 3ec1 f8bc e73c a9bd
00000380: 9e85 10be 0b77 7fbc b91a afbd bb41 093b
00000390: 2bfd 6ebd 56d2 eb3d efaa e8bc 0a92 8a3d
000003a0: 96f0 8d3d a556 69bd 438e 2e3d 4531 44be
000003b0: 5300 12bd 14b9 e6bb 9996 243d 1331 2dbe
000003c0: 1329 06bd 0860 b93d e483 b8bb c989 013c
000003d0: b502 a53c 3d83 b7bc 1afa 75bd fc47 a7bd
000003e0: e132 ca3b d6be fc3c 9acd a4bb f0db 21bd
000003f0: fa25 dbbd b400 583c 5f80 c93d a23f f4bc
0.029551372 0.041205864 0.03130942 0.05600473 0.04506076 0.055666685 0.032082178 0.078399785
-0.018795645 0.101202816 0.19169535 0.078783296 0.037233524 0.19675082 0.02802887 -0.07145644
-0.04386654 -0.15496448 -0.06499494 0.0045706956 -0.0043619745 0.069198735 0.055272516 -0.10687662
-0.06166777 -0.09506947 -0.076154485 -0.08203214 0.075128116 0.064810894 -0.101634316 -0.08014032
-0.041013528 -0.056351278 -0.088351786 0.06382982 0.10419178 0.12751679 0.012268672 -0.09518841
0.13895546 -0.06331441 -0.12093749 0.01517338 0.02377252 0.01689919 -0.044777744 0.06853239
-0.1041644 -0.08690264 0.09615012 -0.1865762 0.035205096 0.06645004 0.010441356 -0.09720499
0.030650152 -0.13691759 0.06095151 0.09800904 -0.09190427 -0.07270196 0.13660467 -0.02591892
0.09251568 0.040479027 0.10262829 -0.006394732 -0.026694994 0.06863802 0.10590166 0.11000924
-0.068781175 0.120819226 0.027618255 -0.0001842264 -0.009053737 0.06042618 0.030670248 -0.02664579
0.14672871 -0.04084921 -0.0003509993 0.022816312 -0.08061105 -0.16237172 0.021912958 -0.06854292
-0.12009165 0.031622365 -0.13292925 0.0637977 -0.05022173 -0.11702307 -0.027206445 0.051858965
-0.009834753 -0.111823395 0.010521705 0.00017198287 0.091431715 0.047492005 -0.101645775 -0.09781352
0.12193153 -0.05400222 -0.08947498 -0.07175776 -0.1058208 -0.07321684 0.14301813 -0.123266704
-0.1001587 0.103162356 -0.17576283 0.04998319 0.06664993 -0.058897115 0.048236124 -0.07598934
0.024696078 -0.02068397 -0.02601747 0.05495153 0.019883167 -0.050039046 -0.05655768 -0.08814748
-0.18158154 0.095273085 0.014164673 -0.064244226 0.017805642 -0.050426573 -0.057940174 0.02694627
0.027000552 -0.04394431 -0.034275092 0.14262988 0.056015085 0.029925158 0.06036225 0.12413452
-0.06072551 -0.042751968 0.082736105 0.0720232 0.112859964 0.11887285 0.03332341 0.08919194
-0.0263179 0.05255635 0.1341352 -0.042570546 0.049687613 0.15711871 0.06663819 -0.049968347
-0.061240193 0.037714425 0.08103609 0.0661152 0.004444028 0.045268945 0.04232594 0.052229065
0.0065334137 -0.013569933 0.04745371 -0.17907484 -0.0076626674 0.031030385 -0.16350174 0.011763752
-0.10681618 -0.026654972 -0.102801666 -0.022510283 0.052538082 -0.011798898 0.04004111 0.06525551
-0.06154951 -0.05431055 0.036683273 0.00058304955 -0.08006753 -0.14438246 -0.1435978 -0.06723364
-0.07502619 -0.10418966 0.057277616 -0.017988963 -0.09654281 -0.0656405 -0.09602594 0.13776758
0.12507477 -0.04485852 0.15120368 0.0844727 -0.07535487 0.026448142 0.07506758 0.05040837
-0.08233566 0.0032622674 -0.006915762 0.028526235 -0.063022785 -0.042191528 -0.062881365 -0.04936853
0.022772493 0.039263904 -0.037015706 0.0029679344 0.021967782 -0.007027124 -0.030365583 -0.08263569
-0.14113471 -0.015592347 -0.08550019 0.002094372 -0.05834691 0.11514728 -0.02840182 0.06766136
0.06930654 -0.056967396 0.04261614 -0.1915942 -0.03564484 -0.007041106 0.040182684 -0.16913252
-0.032754015 0.0905152 -0.005630957 0.007906386 0.020142892 -0.022401446 -0.06005297 -0.08168027
0.006170616 0.030852716 -0.0050293924 -0.03951639 -0.10700603 0.013183761 0.09838938 -0.029815499

conv2.0.bias f4 [16]
00000000: 61e1 0abd 02ac 2e3e 2e23 e3bd 9a86 0cbc
00000010: 583e 17be d623 aa3d 959e 9abd da4c c3bd
00000020: eae2 283e 8fd0 563d 8566 a43d 2a1d 933d
00000030: e85a fe3d ae2d f53c 13ee 723d cf07 8dbd
-0.033906344 0.17057803 -0.11090694 -0.008577013 -0.14769876 0.083076164 -0.07549778 -0.09536143
0.16492811 0.05244499 0.080273665 0.07183297 0.12419683 0.029929008 0.059309077 -0.06886255

conv2.3.weight f4 [16]
00000000: 2033 6c3f a2cc 6f3f 6f98 523f b696 813f
00000010: c98d 7a3f b9f5 683f dc56 553f c8f4 5e3f
00000020: 9f8c 673f e9d0 6e3f 01eb 7e3f 0609 553f
00000030: 2760 6d3f 82dc 723f b16d 6f3f 82a2 633f
0.9226551 0.9367162 0.82263845 1.0124118 0.97872597 0.90999943 0.8333566 0.87092257
0.90448946 0.9328752 0.9957734 0.83216894 0.9272484 0.9486772 0.9352675 0.8891984

conv2.3.bias f4 [16]
00000000: 6ce7 993e 29ed 6f3e c20a b6bc 6a3b 4bbe
00000010: e49d 463e a771 093e a5c4 993d 0559 133e
00000020: 8c66 c7bd 4b4a 123e 2686 a8bd c2fa 433d
00000030: f083 823d 80cf adbc 0301 dd3d d8ae 71bd
0.30059373 0.23430313 -0.022221927 -0.19846883 0.19396168 0.13422261 0.0750821 0.14389427
-0.09736356 0.14286153 -0.08228712 0.047846563 0.06372821 -0.021217108 0.107912086 -0.059004635

conv2.3.running_mean f4 [16]
00000000: 7428 a73e 32f8 183f 21c6 663e ff22 913e
00000010: 87ac b13e 3d35 b93e 1b5c 803e 32b1 2f3e
00000020: 6a83 b33e 87a5 9f3e 65f0 0f3f 0fa4 c23e
00000030: 2243 863f 7e50 2b3f 5443 433f 1c62 b73e
0.3264805 0.59753716 0.22536518 0.28347012 0.3470194 0.3617343 0.2507027 0.17157438
0.35061198 0.31180975 0.5622619 0.38015792 1.0489237 0.66919696 0.7627461 0.3581704

conv2.3.running_var f4 [16]
00000000: 4113 c23e 386b 953e bb7c 9f3e 8470 813d
00000010: bb8d a43e 24d4 b83e f7fd a83e 4928 a73d
00000020: f5ef 533e 4f92 083e b87e 4b3f 8c13 f73e
00000030: 6972 e43e f67e f43e ec55 4a3f d8ec 853e
0.37905315 0.29183364 0.3114985 0.06320289 0.32139382 0.3609935 0.3300626 0.08161981
0.20697005 0.13337062 0.7949023 0.482571 0.44618538 0.47753114 0.79037356 0.2615726

conv3.0.weight f4 [32, 16, 3, 3]
00000000: 0795 853d 175d aa3d feef ef3d d04d 423d
00000010: ef99 c53d dcac cc3d a3b0 f63a 3c84 da3a
00000020: e772 023e 21a0 20bc 2439 8cbd 68e0 493c
00000030: c2e6 c2bc 2334 19bd b83a ae3d dec4 0d3d
00000040: 4b21 843d 9566 b73d 2b81 3fbd 046a 33bd
00000050: 34a0 dd3c 2d9b 163d 4437 e63c a20b dcba
00000060: d643 16bc ac26 51bd 3208 77bd 87dd b63d
00000070: 1cf0 9c3d 09a3 093c 053d 47bd fc97 2d3d
00000080: 8a2f a13d de95 62bc 53ae 68bd 6fc7 bf3d
00000090: 632a f7ba 548b a4bc a917 42bd bfb2 b739
000000a0: 0ec9 b5bd 6ae9 313c 53c4 96bc 29ad 0ebd
000000b0: 2f68 70bd 60b3 b43d f2d8 3a3c 2de8 253d
000000c0: 83e9 383a 063c b43d 8ece 7d3d b957 493c
000000d0: 4e9f 62bd 232b 9e3c cb11 513d 68fa f33d
000000e0: ad6b 0f3d fced c0bb 3cef 1d3d f22c d13d
000000f0: 08b6 54bd ce48 12bd e003 5dbd 9ad5 2c3d
00000100: ad48 ff3c 96a7 b8bd 4c64 993d cdae aa3d
00000110: 8cd2 1b3d b9ab d7bd a99e 4ebd 83fc 71bc
00000120: f4c8 88bb f6e2 6e3d 22c7 16bd 3119 8a3c
00000130: 9488 d03d d0be 973c d42b 11bd 9007 73bc
00000140: 0cb5 493b e65b 84bd eb11 583c b091 5ebc
00000150: 9751 c43c 7264 633b 6ebd a83d 9d56 a8bd
00000160: ae59 423c b356 4dbd 1b37 8fbc b42f 92bd
00000170: 8c63 b73c f938 dd3d 95cb fa3d 1d27 a1bc
00000180: 190d 6d3d 588e 723d 00d0 bfbc 792f 793d
00000190: 8346 453c 8425 d7bc 809f e83d 4898 3a3e
000001a0: 3930 c93d 621b 083d f7bb 503d a128 8d3b
000001b0: 3d4a 903d 8669 fc3c cf81 223d b08e bc3a
000001c0: 8b66 83bb fa27 3a3d 688b 7b3d af44 fa3d
000001d0: 818d 0f3d 8375 3abc 4668 fb3c 661a 12bc
000001e0: 06d6 873b a088 d53b 91ef afbc 9a6a 803d
000001f0: c867 a53d 61af 963d 14d4 83bd 576e e03c
00000200: 53cb 24bc 93c7 933d fa3c 92bc 30c8 d33d
00000210: e270 7bbd e5d3 2ebd 7841 e73d 34be f93b
00000220: a38f 21bd 1f60 b73d c293 96bd 0376 6abd
00000230: 11e2 7bbd 5718 05be 4f75 76bd eb67 29bd
00000240: 5ddb bb3d 5037 3cbd 30c3 10bd 65f9 b23d
00000250: 0744 65bc aaa1 633c 69da f83c 8f2d 3f3d
00000260: bf7e 4dbd 0e4b 373b 5fc3 31bd d73f 09bc
00000270: d95b babd 9582 31bc 44ae 58bc 7cd3 26bd
00000280: eae8 97bd ce17 263a cc0b 893d effa 52bd
00000290: a1a9 e8bd 6515 cb3d cca5 11ba b6a5 c23c
000002a0: 48dd 18bb c29c eebc bef2 1d3d 8005 cc3c
000002b0: 94af 103d 4f6e 63bc 5cac 8e3d 6c29 3abd
000002c0: afc6 433b 9b94 893c a702 6cbd f44a 75bd
000002d0: 1bb2 ec3d 16ce 23bb 2eb7 02be ee77 013e
000002e0: 1e2e 8f3d 986c 4ebd 3a44 8a3d 38fc d0bb
000002f0: b2da aabd de01 23bc 4f95 a5bc a1ec 31bd
00000300: 73a8 393d 422b 6abc 5542 f2bd e60b ad3c
00000310: 0ede ea3c cfea 0bbd 0a25 91bd 50ef c3bd
00000320: f33b 333c c2ba eeba 087e 8b3c df40 5dbd
00000330: 5f3a 383c 3467 3c3a ab44 19bb 12a0 efbc
00000340: 035e c8bd b89e 61bb cdfc 4fbd 69af d7bd
00000350: 37ce 5dbc 9d09 a83c f940 313c c3a1 9b3d
00000360: 9ec0 b9bd 746a cbbd 5266 fabd 31dc e23c
00000370: ad62 9e3d 8f3e c8bd 7490 343e c7c4 023e
00000380: 8df3 46bc 5480 2bbc 6a63 fb3c 0bfc aebb
00000390: aa2f 5c3d f8b6 b8bd 1f34 f23b b22c 7ebc
000003a0: 0c9f ddbd bacf 97bd c5b6 003d 931f 5fbd
000003b0: c701 e2bd 2ae1 db3c 9dad a43b b337 d3bd
000003c0: 947f 823d fa65 3abd eb74 1a3d 394a 833c
000003d0: 0ab3 a9bd 35ae b9bd 057b 90bc d6f4 a9bd
000003e0: e53a 07be 7a42 28bd 7771 b1bd fdf5 b3bd
000003f0: e255 903c 8585 40bd 217c 9a3d e10c 08bc
0.06522565 0.08318537 0.11715697 0.04743749 0.09648501 0.09993908 0.0018820952 0.0016671489
0.12739144 -0.009803803 -0.06846836 0.012321569 -0.023791675 -0.037403237 0.085072935 0.034611575
0.06451663 0.08955113 -0.046754044 -0.043802276 0.02705393 0.03676908 0.028102525 -0.0016788135
-0.009171447 -0.05106227 -0.06031055 0.08928972 0.07662985 0.008400687 -0.048642177 0.04238127
0.078703955 -0.013829676 -0.056806874 0.09364211 -0.0018857237 -0.020085968 -0.047385845 0.00035037656
-0.08876239 0.010858873 -0.018404162 -0.034833107 -0.058693107 0.088232756 0.011404263 0.040504623
0.0007053839 0.08800511 0.061964564 0.012288981 -0.055327706 0.019307679 0.05104236 0.119129956
0.035014797 -0.005887745 0.03855823 0.10213651 -0.05193141 -0.035713963 -0.053958774 0.042195894
0.031162584 -0.090163395 0.07489833 0.08334122 0.03804259 -0.105308 -0.05044428 -0.014769676
-0.004174346 0.058321916 -0.036811 0.016857715 0.101823 0.018523604 -0.03544219 -0.014833346
0.0030778078 -0.06462841 0.013187866 -0.013584539 0.023964686 0.0034697321 0.08239256 -0.08219645
0.011862202 -0.05013151 -0.017482331 -0.07138005 0.022386335 0.10801882 0.122458614 -0.019671971
0.05787382 0.05921778 -0.023414612 0.06083629 0.012040737 -0.026263006 0.11358547 0.18222153
0.09823651 0.03322924 0.050960507 0.004307822 0.0704541 0.030812036 0.039674576 0.0014385786
-0.004010027 0.04544828 0.061412245 0.122201316 0.035047058 -0.011380556 0.03068937 -0.008917427
0.0041453866 0.006516531 -0.021476539 0.06270333 0.08076435 0.073576696 -0.06436935 0.027396364
-0.010058242 0.072158 -0.017851342 0.10340917 -0.06138695 -0.042682547 0.11291784 0.007621551
-0.039443623 0.089538805 -0.07352401 -0.05724145 -0.06149489 -0.12997566 -0.060170468 -0.04135887
0.091726996 -0.045951188 -0.035342395 0.087389745 -0.01399327 0.013893524 0.030377584 0.046674307
-0.050169703 0.002796832 -0.04339921 -0.008377037 -0.0909955 -0.010834356 -0.013225142 -0.04072903
-0.07417472 0.00063359446 0.06691703 -0.05150884 -0.11360479 0.0991619 -0.00055560167 0.023760658
-0.0023325253 -0.029127482 0.038561575 0.024904966 0.035323694 -0.01388128 0.06966469 -0.04544966
0.0029873063 0.016794493 -0.057619717 -0.059885934 0.115574084 -0.0024994663 -0.1276519 0.12643406
0.06991218 -0.05039653 0.067512944 -0.006377723 -0.08342494 -0.009949176 -0.020212797 -0.043438558
0.04532666 -0.01429254 -0.11829058 0.021123838 0.028670337 -0.034159478 -0.07087143 -0.095671296
0.010939586 -0.0018213617 0.01702787 -0.054016944 0.0112443855 0.00071870093 -0.0023386877 -0.029251132
-0.09783556 -0.003442688 -0.0507782 -0.10531504 -0.013537935 0.020512396 0.010818713 0.07599213
-0.09069942 -0.09932414 -0.12226547 0.027692886 0.07733665 -0.09777557 0.1763323 0.12770377
-0.012143028 -0.0104676075 0.030687053 -0.0053401045 0.053756393 -0.090192735 0.007391467 -0.015513586
-0.108213514 -0.074126676 0.031424303 -0.05447347 -0.11035495 0.026840765 0.005025579 -0.10313358
0.0637199 -0.04550741 0.037709158 0.016026603 -0.08286102 -0.090664305 -0.017636785 -0.08298652
-0.1320606 -0.041079022 -0.0866422 -0.08787153 0.017619077 -0.047002334 0.07543207 -0.008303852

conv3.0.bias f4 [32]
00000000: 83bf abbd 4adc eebd 968e 0b3e 78d5 0abe
00000010: 8f06 28bd c52f 8f3b 2460 9bbd c266 4fbe
00000020: c150 4f3d 36bc 72bc abbd 84be a9f8 11be
00000030: 2083 fbbd 3b67 efbd 48d8 d0bd d969 e1bd
00000040: 67cd 32be ff5d d9bd 2958 37bc 482a fbbd
00000050: 8329 cebd 479e 1dbe 10ad 3cbe 5ac7 c6bd
00000060: acc7 e2bd fc2d 7cbd ed5f bfbd 3b5b cabc
00000070: 54fd 97bd 07c6 3abe db54 88bd 39f4 74be
-0.08386137 -0.116631106 0.13628611 -0.13557994 -0.04102188 0.0043697082 -0.07586697 -0.20254043
0.050614122 -0.014815381 -0.25925955 -0.14255013 -0.122808695 -0.116896115 -0.101975024 -0.11006517
-0.17461167 -0.106136315 -0.011190453 -0.12263924 -0.100665115 -0.1539241 -0.18425393 -0.09705992
-0.11073241 -0.06156729 -0.09344468 -0.024701705 -0.074213654 -0.18239604 -0.0665681 -0.23921289

conv3.3.weight f4 [32]
00000000: f0bf 2e3f fca8 473f db3d 5d3f 0c34 4c3f
00000010: d644 723f 1e00 493f bb3d 613f 1929 673f
00000020: 0004 683f 23c4 7a3f ec5b 3e3f e301 593f
00000030: b48d 4a3f d746 4f3f ddf5 4e3f e666 843f
00000040: 8b49 7b3f 5c21 6c3f 259e 473f a5e9 603f
00000050: c303 803f e93b 743f d327 693f 4582 4e3f
00000060: d88b 4a3f 47b7 4b3f 6f9f 443f f180 723f
00000070: 69a6 543f 86eb 703f 7338 513f aa0f 713f
0.68261623 0.77992225 0.8642251 0.7976692 0.94636285 0.78515804 0.8798482 0.90297085
0.90631104 0.9795553 0.7435901 0.84768504 0.7912247 0.8096747 0.8084391 1.0343902
0.9815909 0.922384 0.77975684 0.87856513 1.0001148 0.95403916 0.9107639 0.80667526
0.79119635 0.79576534 0.76805776 0.94728 0.8306642 0.9410938 0.8172676 0.94164526

conv3.3.bias f4 [32]
00000000: a2fe 493e 6a94 953e 5ec0 f1bd 4d2f 16be
00000010: 9e5a 893e d420 c6bd ffb2 0b3e 2281 373b
00000020: 68c9 0cbe 7413 8abc e3b9 843d b94d 74be
00000030: a6d3 f43d 4911 273d b6af 78be c900 5bbe
00000040: 52b9 913e 3c75 3abe 1339 a5bc 1c40 a33e
00000050: 66ca bb3d 5eab 033f 490b 30bd cd74 d5bc
00000060: c49c 753e 227e f7bd 074f cabd b8ec f8bd
00000070: 206f 523e 4866 063e 7384 543e c318 b5bb
0.19726041 0.29214793 -0.11804269 -0.14666481 0.26826948 -0.0967423 0.136425 0.0028000553
-0.13748705 -0.01685498 0.064807676 -0.23857774 0.11954431 0.04078797 -0.24285778 -0.21387018
0.284617 -0.18208784 -0.020168817 0.3188485 0.09169464 0.5143336 -0.042979512 -0.026056672
0.23985583 -0.12084605 -0.098783545 -0.121545255 0.20550203 0.13124955 0.2075365 -0.0055266335

conv3.3.running_mean f4 [32]
00000000: ad5f 193f 7d7a a13e 8c56 d23e a3b5 813e
00000010: 2ae5 cf3e 9def 203f 4498 903e 8089 ab3e
00000020: c2b6 803e 67fe 753e f085 633e 0319 9b3e
00000030: d021 4e3e e028 c73e 41a7 e23e 9304 3a3e
00000040: 270e 513e f593 643e fc7d c83e a259 e53e
00000050: c56e b33e 76b7 9e3e f7fb 9e3e 3f1a 063f
00000060: 0a34 cd3e b8ea 903e 8678 9a3e 0480 c93e
00000070: ceca 163f 66e9 993e 651d d93e 36b1 623e
0.59911615 0.31538764 0.41081655 0.2533389 0.40604526 0.6286562 0.2824117 0.33503342
0.25139433 0.24022828 0.22219062 0.3029252 0.20130086 0.38898373 0.4426823 0.18165807
0.20415555 0.22322066 0.39158618 0.44794947 0.35045448 0.30999345 0.3105161 0.523838
0.40078765 0.28304076 0.30170077 0.3935548 0.58903205 0.3006088 0.4240524 0.22137913

conv3.3.running_var f4 [32]
00000000: 5f15 953f 19f4 c33e 8512 6f3e d899 6c3e
00000010: c06d 843e 1e10 a83e 5275 e93d 0a64 303f
00000020: 872c f23d 7836 f43d d99e 773e d0ee 013e
00000030: ca5b 2e3e ac4e e23e 46c2 033f 3ce4 8b3d
00000040: 8fdc 3f3e f8dc ac3d 64c2 233e 036e 0b3f
00000050: 6b76 4f3e e8ac fd3e 719c 3d3e b7d0 5f3f
00000060: bfcd 483f 1d26 4b3e 8c9d 9f3e 5bac 253e
00000070: 1b03 573f 4dd4 c13e 80ca 053f c292 913e
1.1647147 0.3827217 0.23346908 0.23105562 0.25864983 0.32824796 0.1139933 0.6890265
0.11824899 0.119244516 0.2418169 0.12688756 0.17027202 0.44200647 0.5146831 0.068306416
0.1873648 0.08440584 0.15992123 0.5446474 0.20260017 0.4954598 0.18516709 0.8742785
0.78438944 0.19838758 0.31174886 0.1617903 0.83989114 0.37857285 0.52262115 0.2843228

conv4.0.weight f4 [64, 32, 3, 3]
00000000: 3585 5dbd be34 c7bd 3c29 bdbd 428c 13bd
00000010: a80d 65bd e604 d0bc c560 3f3d df18 023c
00000020: bc20 7b3c 4ba1 393d f6f6 453d 2bd3 73bd
00000030: 6158 1b3d 0b4a 623c cc22 763c 2653 dcbc
00000040: ab6b 21bd e125 d6bc db9e 0d3d d335 183e
00000050: fe98 3a3e aa84 303d 1d6c 8d3d 49fe 083d
00000060: 3880 42bd ca07 29bc 0125 353d 1ed1 37bd
00000070: 695a 3ebd 2378 d9bd cb63 e33c 6d70 9cbc
00000080: 75f9 a5bd 7c16 aebd 6ca7 ef3c c150 cf3c
00000090: e3fe d8b9 7a1b 0ebd 0c5d 233b 2fe9 c13c
000000a0: 3d95 94bd 7a13 26bc ce3e 4ebd c289 dcbd
000000b0: 87af 8fbd ddab 523d 8f9c a23a 93d4 cdbc
000000c0: ea43 f13c d3c4 6fbd 3e3a f2bc ceae 15bc
000000d0: f0c0 9a3c 5d2a a2bd 228b 71bd 26e3 96bd
000000e0: 2058 5fbd 2c84 9fbc 9913 d1bd 2539 0bbd
000000f0: a9a9 3fbd 5d6c e6bd b926 0bbe a041 d03c
00000100: 4b16 973d f5e2 193d 8321 b03c c69e 90bc
00000110: 5704 15bc aec7 c2bb fb75 ecbc d3cb 4bbd
00000120: e60d 0d3d 71c0 e03c 296a 803c d9f5 643c
00000130: fbc7 443d 4e73 a3bb 7489 27bd 835f 69bd
00000140: c7a5 89bc b598 f93b 0290 8c3d 4268 e8bb
00000150: 9559 54bd 288a 433d 6b5c efbc d310 48bd
00000160: 4b7c 073d 26f0 a6bc 8d60 f9bc 6709 a0bc
00000170: 43a9 debb b244 14bb c3c4 0cbd 203b 95bd
00000180: d8ce 38bd a2fe 273c 0377 5b3c e6a8 6abd
00000190: ce4e 40bc 98b3 343d 05bb 82bb 1fe9 febc
000001a0: c763 cd3c 5e2a 513c 722d 14bd d5bd 753d
000001b0: f732 bcbc c120 68bd bce9 c7bd 8175 a0bb
000001c0: 8131 f63b db85 953c 1eea 26bd bf16 c43c
000001d0: d3a9 21bb 4f72 a6bd dfd2 a2bd 65a7 7bbd
000001e0: 8bb9 53bc c4ea cfbc e63e cfbc c4be 23bb
000001f0: dcd4 593c 947e 043d e56a f93c d9ac 7fbb
00000200: 2758 ecbc 4368 ccbc a418 813c 681a 46bc
00000210: 6b45 bd3c fd88 93bc 4318 a6bc 5301 8abd
00000220: cfd3 74bd 0ccf fabc 79e0 febb 0be2 643d
00000230: 37d4 84bd fc02 49bd 46d4 343d dcdb a43b
00000240: 3cf7 d23d 4d78 aebb 36db 8ebc 25a3 5dbd
00000250: a612 87bd 5f80 c1bb b196 ea3c efae 843d
00000260: 3c59 d73b f078 00bd 5449 333d 113f 343d
00000270: d543 3cbd 3f48 7a3d 49ea 823d 6f8e e8bc
00000280: dafa 13bd 8786 b13c 8513 98bc 24f0 8bbc
00000290: 4730 e83c 33c5 ecbc 9f80 553c 166c 3f3d
000002a0: 892d d2bc dfa6 adbd 28a4 71bc 0e59 693c
000002b0: de5b 1abd ca87 5cbd 7e12 4a3d 96b3 babc
000002c0: 26d3 9bbc e60e 973c 818e 7f3d ba29 f73c
000002d0: c544 8e3d 4df6 ddba b606 0abd be93 e03c
000002e0: 119d 073c 1199 86bd c846 cc3c 7d49 7abd
000002f0: bf08 1bbd f65f 183c 011d 21bd 0bfd 813c
00000300: fc00 e9bc 5068 dd3a 0dde 7f3d 5e5e debc
00000310: e0e1 f1bc 28b8 6cbc 74b8 b23b 0146 7e3c
00000320: fa26 acbc eff0 86bc ef67 db3c 5f85 773d
00000330: c3e5 3bbc 937a 24bc 3e91 073c 18a8 35bd
00000340: 92b8 20bd 74a5 99bc 4d15 34ba 7abe f6bc
00000350: d6cb 1e3c f515 5cbd 39c4 1dbd e3b2 dd3c
00000360: 96e0 42bd 0643 68bd 6272 8ebc c294 eebc
00000370: b11d e23b ae42 13bd 60df 83bc f41c c9bc
00000380: 0854 d5bc 785e 3e3b fe04 e23a 2647 f23c
00000390: 2a5c 983c fd81 71bd 14a7 0e3d b4c7 fa3c
000003a0: dac2 f5b9 417d 22bc 2d6c 1ebd 47f9 b6bc
000003b0: 4b3f 3bbc 16e9 2cbd 884e 3abb b583 563b
000003c0: 0b70 1fbd 0ad7 14bd 2507 873c d141 fabc
000003d0: d479 443d 28e3 173d be8e 8bbd 0a0a 1dbd
000003e0: bb61 af3d ac7d ecbd 3ca4 3cbc 47b2 fbbc
000003f0: 673f ffbc f4ed 7fbd 9bab e6bd 6306 11bd
-0.054082114 -0.09726857 -0.092363805 -0.036022432 -0.055921227 -0.02539296 0.046723146 0.0079405
0.015327629 0.045319837 0.048331223 -0.059527557 0.03792608 0.0138115985 0.015022945 -0.026895117
-0.03940932 -0.026141109 0.034575325 0.14864282 0.18222424 0.04309527 0.069053866 0.03344563
-0.04748556 -0.010316798 0.044224743 -0.044877164 -0.04647294 -0.106186174 0.027757546 -0.019096578
-0.08104221 -0.08500382 0.029254638 0.025307061 -0.00041388636 -0.034694172 0.0024927286 0.02367076
-0.072550274 -0.0101364795 -0.050352864 -0.10768463 -0.07015901 0.051433433 0.0012406277 -0.025125777
0.02945133 -0.058537316 -0.029568788 -0.009135915 0.018890828 -0.079182364 -0.058970578 -0.07367544
-0.054527402 -0.019472204 -0.10208816 -0.033990044 -0.04679266 -0.112511374 -0.1358899 0.025421917
0.07377299 0.03756996 0.021500355 -0.017653834 -0.009095273 -0.005944214 -0.028864851 -0.04975493
0.034437083 0.027435513 0.015675621 0.01397463 0.04804228 -0.0049881106 -0.04090257 -0.056975853
-0.016802682 0.007617081 0.06863405 -0.0070925066 -0.051843245 0.047739178 -0.029218873 -0.04884417
0.03307752 -0.020378184 -0.030441547 -0.019535733 -0.00679508 -0.0022623953 -0.034367334 -0.07286668
-0.045119137 0.01025358 0.013395074 -0.05728998 -0.0117375385 0.044116586 -0.0039895796 -0.03111702
0.025071992 0.012766449 -0.036176153 0.05999549 -0.02297352 -0.05667186 -0.09761378 -0.00489682
0.0075132255 0.018252304 -0.040750615 0.023936627 -0.0024667874 -0.081272714 -0.07950377 -0.061438937
-0.012922655 -0.0253805 -0.025298547 -0.0024985531 0.013295379 0.032347277 0.03044648 -0.0039012937
-0.028850628 -0.02495206 0.01575882 -0.012091257 0.02310439 -0.018009657 -0.02027524 -0.06738534
-0.05977231 -0.030616306 -0.007778224 0.055879634 -0.06485789 -0.04907511 0.044147752 0.005031092
0.103010625 -0.0053243996 -0.017438512 -0.054110665 -0.06595354 -0.0059051956 0.028636308 0.064786784
0.006571917 -0.031365335 0.043771103 0.044005457 -0.045963127 0.061104055 0.063923426 -0.02838823
-0.036127903 0.021670593 -0.018563995 -0.017082281 0.028343333 -0.028902626 0.013031154 0.04673394
-0.025656478 -0.08479094 -0.014748611 0.014242424 -0.037685268 -0.053840436 0.04933404 -0.022790711
-0.019021582 0.018439721 0.06239176 0.030171264 0.069467105 -0.0016934365 -0.033697806 0.027414199
0.008277194 -0.06572164 0.024936095 -0.06110524 -0.037850138 0.009300223 -0.0393343 0.01586773
-0.028442852 0.001689205 0.062467624 -0.027144607 -0.02952665 -0.014448203 0.0054541174 0.01551962
-0.02101468 -0.016472308 0.026782958 0.060429927 -0.011468354 -0.01003899 0.0082743745 -0.04434976
-0.03923852 -0.018755652 -0.0006869629 -0.030120123 0.009692153 -0.053731877 -0.03851721 0.027062839
-0.047577463 -0.056704544 -0.017388526 -0.029123668 0.006900512 -0.035952263 -0.016097724 -0.024549939
-0.026041046 0.0029048007 0.001724392 0.029574942 0.018598635 -0.058961857 0.034827307 0.030612804
-0.00046875217 -0.009917558 -0.038677383 -0.022335662 -0.011428664 -0.042214476 -0.0028428156 0.0032732312
-0.038925212 -0.03633789 0.016482899 -0.030548962 0.047967747 0.037081867 -0.06814335 -0.038339652
0.085635625 -0.115474075 -0.011513766 -0.030724658 -0.031158162 -0.06248279 -0.112632 -0.03540648

conv4.0.bias f4 [64]
00000000: 16e4 04bd b711 16be e05c 9ebd 17c1 c9bd
00000010: 3949 01be 31e5 c53b 6a61 a2bd fe13 b3bd
00000020: ed54 1abe c361 783c 81c3 97bb bb8a 96bd
00000030: 2932 a7bc de42 acbc d9fa b23c 02f5 fbbc
00000040: ab04 cfbd 21fb 01be da1a a9bd 735f 8ebd
00000050: fbba 4bbd 6c26 6fbd ff48 c9bd 7254 61bd
00000060: 83d0 82bd 0907 f4bd 6969 75bd 0780 0dbe
00000070: 8721 52bd 3337 cebd df4a 94bd c12b 5abb
00000080: 2523 f5bd 38fd 97bd 9809 4d3b bc46 ddbd
00000090: be8d c7bd 4f75 223c aa06 07bd 0078 0fbe
000000a0: 9d29 40bd 06ef 193c b439 f4bd e44a 04be
000000b0: 5dd6 cbbc 07fa a1bb 2443 34bd c2f8 b6bd
000000c0: 014e e8bc e382 a4bd f8a7 2bbd 1a37 91bd
000000d0: bc66 ddbd 329c 0bbe f540 953d bddc f2bd
000000e0: 4b9f 4cbd be47 3fbd c33a 8bbd 133e 3bbe
000000f0: a363 bcbd c7d0 56bd 26a0 fdbc 54e8 9bbd
-0.032444082 -0.14655195 -0.07732558 -0.09851282 -0.12625588 0.0060392846 -0.079287365 -0.087440476
-0.15071459 0.015160027 -0.00463146 -0.073506795 -0.02040966 -0.021027979 0.02184813 -0.030756477
-0.10108312 -0.12693454 -0.08257075 -0.06951799 -0.049738865 -0.05838625 -0.09828376 -0.055012174
-0.06387427 -0.11915404 -0.05991498 -0.1381837 -0.051301505 -0.10069122 -0.07240843 -0.003329024
-0.11969594 -0.074213445 0.0031286236 -0.10804507 -0.09743832 0.009915664 -0.03296534 -0.1401062
-0.046914686 0.009395367 -0.119250685 -0.12919194 -0.02488249 -0.0049431357 -0.044009343 -0.089341655
-0.028357508 -0.08032777 -0.041908234 -0.07090588 -0.10810611 -0.13633803 0.0728778 -0.11858509
-0.0499566 -0.046699278 -0.06798317 -0.18285398 -0.09198692 -0.0524452 -0.030960154 -0.076126724

conv4.3.weight f4 [64]
00000000: 485d 3e3f 6579 4c3f adfe 6b3f f787 573f
00000010: 2856 2c3f ebe7 5b3f 202f 4c3f 4578 503f
00000020: 2894 473f 4141 463f b087 4d3f 9d42 503f
00000030: fb07 493f 1c2f 3e3f 32cd 443f 44a6 303f
00000040: 3a70 493f 28cc 403f 2410 6e3f dda7 5c3f
00000050: cbbc 663f eb17 593f 57e8 423f 7cff 333f
00000060: 0a53 4e3f be34 433f 874a 4d3f adc9 5a3f
00000070: d886 543f 8437 3f3f 4a3d 323f 014c 4c3f
00000080: ffa8 343f 8658 653f c059 543f 1f56 573f
00000090: 9d87 503f 4ead 483f eba4 573f 8e6f 533f
000000a0: c684 3b3f ce92 603f 0917 543f 7d74 5e3f
000000b0: aab9 533f a7ac 453f fa34 1c3f eaed 533f
000000c0: d65c 6d3f 23f1 4c3f 1092 473f 39bc 573f
000000d0: ebd7 413f 579f 423f dfda 573f c8a1 4e3f
000000e0: da21 563f 51c7 553f 1597 2c3f a0f9 513f
000000f0: 0375 473f befd 4c3f 074c 593f 4700 683f
0.74361086 0.79872733 0.9218548 0.8419184 0.67318964 0.85900754 0.7975941 0.81433517
0.77960443 0.7744332 0.8028517 0.81351644 0.785278 0.74290633 0.76875603 0.690037
0.7868687 0.7531152 0.9299338 0.8619364 0.90131825 0.8480212 0.7613577 0.70311713
0.8059546 0.76252353 0.80191845 0.8546398 0.83018255 0.74694085 0.6962477 0.7980347
0.7057037 0.895882 0.8294945 0.84115785 0.8145693 0.7838944 0.8423602 0.82592094
0.7324947 0.87724006 0.8284765 0.86896497 0.82705176 0.7721657 0.61018336 0.82784903
0.9271978 0.80055445 0.7795725 0.8427158 0.7572009 0.76024383 0.84318346 0.8071561
0.83645403 0.8350726 0.6741803 0.8202152 0.7791292 0.8007468 0.84881634 0.90625423

conv4.3.bias f4 [64]
00000000: 2cfd 29be 9172 fe3d caf6 dd3c 8f3e 903c
00000010: 588f 913c 57d7 3cbe 155f 453d da75 66bd
00000020: 1cce 71bd 11d7 c4bd 0b60 793c a161 56bd
00000030: 3162 663d fdce 9a3d 4713 fdbd 241f 31bd
00000040: 2501 17be ade7 b73d 6048 2cbd 9f5f bbbd
00000050: 4844 6abe b2b3 01be 34b4 ba3c d811 b8bb
00000060: 1e6e 33bd cd79 2f3e 2391 c03d 8dcb 683e
00000070: 5ad3 d9bd 45ba fcbd 4be8 41be a77a 033d
00000080: 2e74 a8bc 9e78 32be dabf 02be 117b 2a3c
00000090: 5846 14be 1a32 cabd 1cf7 133e 0b42 38be
000000a0: 9827 793e 7519 0dbe b932 fabc 9dd6 19be
000000b0: 9efe bc3d f541 c43d c9c5 c9bd 8c03 9cbd
000000c0: 7811 a63d 421f 433d 518b fdbd fd94 0abd
000000d0: e4d9 01be 29f7 4fbe 0fdc 09bd 6940 9b3d
000000e0: 4ad2 2ebe 09d4 00be a4f5 dabd 7243 423e
000000f0: 51b3 3dbe 8f70 3abe c700 233e 6656 58be
-0.16600484 0.124241956 0.027095217 0.017607955 0.017768547 -0.1844152 0.04818638 -0.056264736
-0.05903445 -0.09611333 0.015220652 -0.0523392 0.056245986 0.07559011 -0.123571925 -0.04324259
-0.1474653 0.089797355 -0.04206121 -0.09149098 -0.2287761 -0.12666205 0.022791006 -0.0056173615
-0.043806188 0.17136307 0.09402683 0.22733898 -0.10636015 -0.123402156 -0.18936269 0.032099392
-0.020563211 -0.17428824 -0.12768498 0.010405318 -0.14479959 -0.09872837 0.14449733 -0.17993943
0.2433151 -0.13779242 -0.030541765 -0.15023275 0.09228252 0.09582893 -0.09852178 -0.07617864
0.08108801 0.04763723 -0.12380088 -0.033833493 -0.12680775 -0.20309128 -0.03365713 0.07580645
-0.17072406 -0.12580885 -0.106913835 0.18971041 -0.18525435 -0.18207 0.15918265 -0.21126708

conv4.3.running_mean f4 [64]
00000000: 79ed e33e 6b2b 073f c9cd 193f d0cd e43e
00000010: 03c7 833e 8272 103f 31cd ec3e 1116 2e3f
00000020: 6253 0a3f 20f4 e53e 227f 873f 9b0e 093f
00000030: 71bf 653f 1760 fd3e 657b 1a3f 1f1c 843f
00000040: 0c5f bb3e bc4c ae3e 1609 1c3f 7b2d 063f
00000050: d078 f93e 36f0 243f 3a6c 003f c97f 1e3f
00000060: c1ec 383f 291e bb3e ec54 c13e e52c 6d3e
00000070: 70b3 e43e c470 5b3f b016 093f d768 0c3f
00000080: 5d13 973e 436a b23e 553a 453f 83b4 b33e
00000090: cd80 9c3e c9f9 a23e 6bf8 743e 571d 1f3f
000000a0: 5f43 203f d883 0c3f 6b50 f93e 318d 313f
000000b0: a184 083f 3ce4 bb3e 48f8 9f3f 6e03 de3e
000000c0: de67 353f 5c7a f53e ff64 b73e 0f1a 4d3f
000000d0: 8515 1d3f 217e 603e 8f7c 563f 92a0 ca3e
000000e0: e625 2c3f ab6d d63e ca6c bf3e 820d a43e
000000f0: a7ba 003f 4d26 0d3f 57c3 033f 4d05 173f
0.44517115 0.52800626 0.6007963 0.44688272 0.2573777 0.56424725 0.462503 0.6800242
0.5403348 0.44912815 1.0585673 0.5353791 0.8974524 0.49487373 0.60344535 1.0321082
0.36595953 0.3404292 0.60951364 0.5241315 0.48724985 0.6442903 0.5016514 0.61913735
0.7223626 0.36546448 0.37760103 0.23161657 0.4466815 0.8571894 0.53550243 0.5484747
0.2950696 0.34846696 0.7704213 0.35098657 0.30567017 0.31831196 0.23922889 0.62154144
0.626028 0.5488868 0.48694167 0.69356066 0.53327376 0.36697567 1.2497644 0.43361992
0.70861614 0.47944915 0.3581924 0.8011789 0.6136096 0.21923114 0.8378381 0.3957563
0.6724533 0.41880545 0.37387687 0.32041556 0.5028481 0.5513657 0.5146994 0.58992463

conv4.3.running_var f4 [64]
00000000: 0f75 983e 4e39 4f3f c0f5 273f 389c e83e
00000010: 3247 9f3e 9687 1a3f dac5 1c3f 5546 1b3f
00000020: b511 073f 62ae b93e dd97 5b3f 17f2 d23e
00000030: 4452 953f db54 d73e d1cd fc3e d41d a03f
00000040: fa64 9b3e be85 073f 8732 d73e 31be b63e
00000050: 53e0 163f aca1 d53e dc93 003f 2b17 3f3f
00000060: fc25 4f3f bf34 893e 9d8a b23e a2a0 983e
00000070: 1df2 1d3f 00be a33f 13e8 583f 3e51 0d3f
00000080: 0d12 103e 246a e13e 2bbf 4b3f 90bd e73e
00000090: dc49 943e 4255 6b3e 8b00 2d3e 37e2 383f
000000a0: b1a8 2d3f bb2f d93e ce25 123f fbc9 363f
000000b0: 801c a63e 3c24 883e 2705 e13f 0c52 693e
000000c0: 6b84 213f 12a2 803e bd63 9d3e 60e4 753f
000000d0: fdff 503f 1781 3a3e 6fa6 0c3f 53a4 bc3e
000000e0: 014d ac3f 07ab a03e b875 8b3e 7b3c 023f
000000f0: 140d 093f 40c8 d93e b5eb b03e 1cd3 d23e
0.2977681 0.80946815 0.6560936 0.45431685 0.31109005 0.6036314 0.612394 0.60654193
0.52761394 0.36265856 0.857786 0.41200325 1.166573 0.42056927 0.49375775 1.2509103
0.30350477 0.5293845 0.42030737 0.3569198 0.5893604 0.41724908 0.50225616 0.74644727
0.80917335 0.26798055 0.3487138 0.29810053 0.6169756 1.2792358 0.8472912 0.5520209
0.14069386 0.4402629 0.79588574 0.45261812 0.289626 0.22981742 0.16894738 0.72220176
0.6783553 0.42419228 0.57088935 0.7140195 0.3244362 0.26590145 1.7579697 0.22785205
0.6309268 0.2512365 0.30740157 0.960516 0.8164061 0.18213306 0.5494146 0.3684412
1.3461 0.31380484 0.2723825 0.50873536 0.5353558 0.4253559 0.3455483 0.4117669

bottleneck.0.weight f4 [128, 64, 1, 1]
00000000: 4fc5 0c3d 33fe c63c d37a d43d e329 a93d
00000010: 0e4a 613d c16a 12be db4e 803d 0853 6fbd
00000020: 8a73 15bd db8b be3c 1214 56bd 7836 a9bd
00000030: 86f3 e2bd 6b46 943d f4e6 123d ad9b e1bd
00000040: 42de 843c 8fec 413d ea0e 92bd 74c3 04bc
00000050: 242e b33d 881a 94bd 454f e03d c03d d8bd
00000060: e27c 1abe acf2 09be 37a0 99bd f2ee 8b3d
00000070: bfe5 4ebc 14d4 9fbd 4fb8 bd3d 889f 9cbd
00000080: 6eb7 0abc 781a 953d c86c acbd 532a 373d
00000090: e036 083e b7f9 78bc 1455 133e 68b0 c83d
000000a0: b92e ddbd 1751 55bd 92a6 15bd cd47 65be
000000b0: 957a 6c3d 7079 4bbb 9d92 043d 7c7a 9f3c
000000c0: 0fee 67bd ba2b ea3d 605c bbbd 02be 55bd
000000d0: 6f50 0c3c 4833 083e 6766 58bd 660f ddbd
000000e0: 01f5 c2bd 4456 1d3d f518 4d3c 4fe8 b2bd
000000f0: 31cd 853d ea73 80bd 9730 75bc 2cf8 ed3c
00000100: 3ccc 4dbd 5090 0f3c 2ab1 063b 0f98 d53c
00000110: eea2 c5bb cab4 9c3a 04c6 863d bf48 903c
00000120: 0612 233d 57c1 333d 089d b03b bd80 23bc
00000130: 9603 0abd 7674 233c 9e8e 0bbd 70f2 843c
00000140: 178c 8d3a 1bcd 353c c5a6 56bd a64b c43c
00000150: 351b 35bd 2210 173d a62f 64bd fa30 a33c
00000160: e899 f13b d418 95bd 1b34 163d 9770 fa3b
00000170: 193e 9c3d e21b b8bc 6ecc debc 67dd e8bc
00000180: fd48 bb3c 07ae 8dbd 823b 7e3d 3e7a 4dbd
00000190: a0d5 2fbd 55ad f23c 7be7 b3bc b6fe 243d
000001a0: b311 113d c220 46bd 1991 7a3d f5b9 a2ba
000001b0: ba68 92bb 55d9 81bc 1368 ca3b 5ad3 98bb
000001c0: 1fa9 c4bb a836 693d 7b50 92bc 3e6f f53b
000001d0: 9d2c 363d 0579 4f3c 0453 2abd 0517 b83d
000001e0: 8ee6 7abc b2dc 28bd f928 843a 9963 8a3b
000001f0: b487 5b3d afcc 12bc b376 033b 765d 743d
00000200: fe4f ca3d 24b0 ebbc 342b 7d3d ebbe 843d
00000210: 3c5b 04bd 30c6 893c 5d24 9bbd 61e5 00bd
00000220: c663 c9bc 27ea 1e3d 2c37 84bd 5dda 6c3c
00000230: be53 453c 200e 24bd dd78 153d 86de 96bc
00000240: 5a57 9ebb 3924 70bd de9d 883c e616 8abd
00000250: 097b 303d fc62 133c b858 a13d f518 943c
00000260: 7253 60bc ac1b 3f3d 1438 9e3c 2e42 a23d
00000270: d201 d2bd 6512 7e3d ad31 b33c 5a2f 383c
00000280: 227c 47bc d755 fd3d bb00 03bd 82d8 9c3d
00000290: a6e7 87bd a62f 143c e840 2b3e 23a3 223d
000002a0: dd46 433c 0789 7dbd 66e9 ae3c 3584 54bd
000002b0: cb5c 09ba 881c a33d 8d4c 82bb d516 6d3d
000002c0: 6bd9 e8bb cbfe 67bd b97a 25bd 192e 2e3d
000002d0: c872 41bd b7d6 463d 31df 7d3d b1d5 b0bd
000002e0: 4df4 2d3d b19d 2cbd b59a a43d 1e83 d9bc
000002f0: b792 593c 31a9 ea3d 81c2 26bd 86ae d9bb
00000300: 6d40 a23d 3cea 9e3d 93eb df3b c661 debd
00000310: d6ed c4bd d22e 973d 0b4d 2d3d 4398 caba
00000320: c517 0c3d 8c1f 9abd 0c74 a2bd f531 11bd
00000330: 6e70 f23b be0e f0bd 9a5c 4d3d 3e30 89bc
00000340: 6fe6 c43c 4f5d 953b d5f7 c0bd 0994 1abd
00000350: 1ad3 48bc 6340 893c 6dae d03c 459b 91bd
00000360: 412c 9c3d d4f0 e5bd 7173 23be 730c 07be
00000370: 96a9 643d 9071 d7bb 7bc1 343d f5e1 bbbd
00000380: ea7c a53d 7cf5 d2bd f741 2dbd 3ef9 00bc
00000390: 7f05 823d cfdb f13d c635 45bb 1531 453d
000003a0: 2ed1 a73b 6f5b 3d3d 43d3 9b3d eeb4 d7bb
000003b0: 2486 8a3d 6cdc 77bd 8f06 8ebc 2abc 143c
000003c0: e2d0 83bd b05d af3c ac94 a3bd cfef de3c
000003d0: 66d0 0dbd cef5 963d d644 a63d f06f edbd
000003e0: c4d4 a83d 1544 75bd 757d 183d a389 0ebe
000003f0: 84d9 00be 0dea c83d 8016 3bbd 0f58 323d
0.034367856 0.024291134 0.10374989 0.082599424 0.055002265 -0.14298536 0.062650405 -0.058428794
-0.03648714 0.023260048 -0.052265234 -0.08262342 -0.11081605 0.07239994 0.035864785 -0.11016021
0.016219262 0.04734474 -0.07131751 -0.00810324 0.08749035 -0.07231623 0.109526195 -0.10558653
-0.15086702 -0.13471478 -0.07501262 0.068326846 -0.012628018 -0.078041226 0.0926367 -0.07647616
-0.008466585 0.07280439 -0.08419186 0.044718098 0.13302183 -0.015196255 0.14387923 0.09799272
-0.10799927 -0.052079286 -0.036535807 -0.22390671 0.05773409 -0.0031047724 0.032366384 0.019467585
-0.056623515 0.114341214 -0.091484785 -0.05218316 0.008564099 0.13300812 -0.052832033 -0.10793953
-0.09519387 0.038412347 0.012518157 -0.087357156 0.06533278 -0.06272109 -0.014965198 0.029049002
-0.0502436 0.008762434 0.0020552375 0.026073484 -0.0060313856 0.0011955735 0.06580737 0.017612813
0.03981211 0.043885555 0.0053898133 -0.009979424 -0.033694826 0.009976497 -0.034071557 0.016228884
0.0010799196 0.011096264 -0.052405138 0.023961853 -0.0442154 0.03688062 -0.055709504 0.019920815
0.0073730834 -0.07280126 0.036670785 0.0076428163 0.07629032 -0.022474233 -0.027197089 -0.028425885
0.022861952 -0.06917959 0.06206847 -0.050165407 -0.042928338 0.029623667 -0.021960964 0.040281974
0.03541727 -0.048371084 0.061173532 -0.0012415039 -0.004468051 -0.015850702 0.0061769574 -0.004663867
-0.006001606 0.05693689 -0.017860642 0.0074900677 0.04447614 0.012663131 -0.041583076 0.089887656
-0.015313758 -0.041226096 0.0010083012 0.0042232987 0.053596213 -0.008959933 0.0020059764 0.059659444
0.098785385 -0.028770514 0.06180878 0.06481727 -0.03231357 0.016818136 -0.07575295 -0.031468753
-0.024583708 0.038797524 -0.06455836 0.014456359 0.0120438915 -0.040052533 0.036492217 -0.018416654
-0.0048321905 -0.058628295 0.01667684 -0.06742649 0.043086085 0.008995768 0.0787825 0.018078307
-0.01369177 0.04665725 0.01931385 0.07922779 -0.102542534 0.06202926 0.021874273 0.011241758
-0.012175592 0.12369888 -0.03198312 0.07658483 -0.0663598 0.009044563 0.16723979 0.03970636
0.011918751 -0.061898258 0.021351527 -0.051883895 -0.00052399625 0.07964426 -0.0039764107 0.057883102
-0.0071059964 -0.056639474 -0.04040024 0.04252443 -0.047228605 0.04854461 0.06198043 -0.086345084
0.04246931 -0.042142574 0.080373205 -0.02655178 0.013279608 0.11458052 -0.040712837 -0.0066431193
0.079224445 0.077595204 0.0068335026 -0.108584926 -0.09615676 0.07381977 0.042309802 -0.0015456754
0.034202356 -0.07525548 -0.079322904 -0.035448033 0.0073986566 -0.11721562 0.05013714 -0.016746636
0.02403566 0.0045582424 -0.0942227 -0.037738834 -0.012257362 0.016754335 0.025473798 -0.071096934
0.07625628 -0.11227575 -0.15962006 -0.13188343 0.055825792 -0.006574817 0.04412983 -0.09173957
0.08080466 -0.10300729 -0.042299237 -0.007871924 0.063487045 0.11809503 -0.0030091866 0.04814251
0.0051213717 0.046229776 0.07608654 -0.006582848 0.067638665 -0.060512945 -0.017337112 0.009078065
-0.064363256 0.021406978 -0.07987341 0.027213959 -0.034622572 0.07371102 0.08118598 -0.11593616
0.08243707 -0.05987938 0.03722902 -0.13919692 -0.12582976 0.09810267 -0.045675755 0.04354101

bottleneck.0.bias f4 [128]
00000000: cc29 87bc c717 aebc 1872 c5bd 5a6a 55bd
00000010: cd6f 08be fbfa a5bd 6233 b7bd d3b5 e83c
00000020: 4baf 97bc 820c 07be 4448 823c 9198 123d
00000030: fc0b 3ebe 3567 bebc b660 26be 88fe aebd
00000040: 3cd0 15be 9dad 9bbd 836a 5dbd a3ba 12be
00000050: 38a4 96bd 01de edbc b41a 11be fd94 f93a
00000060: e67d 43bb 5057 40be ce0b ccbd 3876 26be
00000070: c027 8a3c af8f 24be d7b4 73bd ef72 16bd
00000080: 05b1 a9bd 94e7 40be 5189 5fbd 1255 ebbc
00000090: de31 d1bc 6b8f 04be 3191 9abd d412 163d
000000a0: 9d87 dabd 1718 97bd 3d49 a6bc 2679 c3bd
000000b0: 1758 adbd f449 89bd efbc 57bd 8266 cebc
000000c0: d9a2 b13b 68fd e5bc 0331 02be bca5 63bd
000000d0: f27a 56bd 0fc6 00be 9b78 78bd 5b04 38bc
000000e0: 1d64 c43c d235 37be 8ce1 10be 05fd 26be
000000f0: 6ccb f3bc 648d 783b fe57 f7bc 605d f33b
00000100: 192a 23be 6797 b5bd cfce c3bd 56ce 36bd
00000110: 4d09 17bd 9883 c1bc 22f2 d73c 5d9b 873c
00000120: 9eb7 8cbd 7f65 9eba 5eb4 3cbd b6d8 42be
00000130: 16cf eebd 7bd9 5fbd 1d67 87bd aea0 21be
00000140: 82ec 0dbe bc1e 2f3c d8d8 e93c 6ff4 aebd
00000150: d707 debd 11f3 b23d 4808 e1bd db9c eabd
00000160: ea7c 063d 90ae 36bd c2cc 50bd e61e 18bd
00000170: a5e6 49bd d859 94bd 1365 1fbd 2e83 87bd
00000180: a80a aabd 3e7c 5e3d 4259 3dbd e4f4 fc3c
00000190: 8a11 b2bd f2b4 28be c476 8fbd 6a4a 12bd
000001a0: 1414 62bd 0b9a 04be 80ea 44be 068d 12bd
000001b0: e56b d1bd df21 e5bd 802d 983a d472 313c
000001c0: 75b8 10bb 3d9f 86bd fedc a73d 7658 46bd
000001d0: 6af1 e6bd f661 72bd 1f4c c1bd a6d9 2cbe
000001e0: 8899 1cbe fb10 e2bd e7fd 47be dddd b0bd
000001f0: 22fe bc3b 520c edbd 2a26 25bd 888a 02bd
-0.016499422 -0.021251572 -0.09640902 -0.052103378 -0.13323899 -0.08104511 -0.08945347 0.028407013
-0.018516203 -0.13188365 0.0159036 0.03579003 -0.18559259 -0.023242572 -0.1624783 -0.08544642
-0.14630216 -0.076014735 -0.054056656 -0.14329009 -0.07355541 -0.029036524 -0.14170343 0.0019041594
-0.002982968 -0.18783307 -0.09963189 -0.16256034 0.016864657 -0.16070436 -0.059498634 -0.036730703
-0.08285717 -0.1883834 -0.054574315 -0.028727088 -0.025536474 -0.12945335 -0.07547224 0.03663905
-0.106703974 -0.07377642 -0.020298595 -0.095445916 -0.084640674 -0.067035586 -0.052670415 -0.025195364
0.0054210243 -0.028074935 -0.12714009 -0.05557798 -0.052363344 -0.12575553 -0.060661893 -0.011231507
0.023973519 -0.17891625 -0.1414854 -0.16307457 -0.029760085 0.0037926072 -0.030193325 0.0074269027
-0.15934028 -0.08866768 -0.0956093 -0.04463037 -0.036874104 -0.02362232 0.026360575 0.016553575
-0.0687096 -0.0012084692 -0.04607045 -0.19027981 -0.11660592 -0.054650765 -0.06611464 -0.1578395
-0.13859752 0.01068848 0.028545782 -0.08542716 -0.10841339 0.087377675 -0.10987908 -0.11455699
0.03283397 -0.04460007 -0.050976522 -0.037138842 -0.049292225 -0.07243699 -0.03891475 -0.066168174
-0.08302814 0.054317705 -0.0462277 0.030878492 -0.086947516 -0.16475275 -0.070050746 -0.035715498
-0.05519493 -0.12949388 -0.1923008 -0.03577902 -0.102256574 -0.11188101 0.001161024 0.0108306
-0.0022082601 -0.06573341 0.08196448 -0.048424207 -0.11276515 -0.059175454 -0.09438347 -0.16879901
-0.15292943 -0.11038395 -0.1953045 -0.08636067 0.0057675997 -0.115746155 -0.0403196 -0.031870395
